main_results.pt (torch_old, 109005 bytes, 20 tensors)

weight f4 [16, 1, 5, 5]
0	0xbdb17679	-0.08665175
1	0xbd727ee9	-0.059203062
2	0xbe25675c	-0.1615271
3	0xbd90db5b	-0.07073089
4	0x3e36b24d	0.17841454
5	0xbc8479f5	-0.016171435
6	0xbe6c8f6f	-0.2310159
7	0xbe092ee1	-0.13396789
8	0x3d978512	0.07398428
9	0x3de9a7ae	0.114089355
10	0x3d143614	0.036184385
11	0xbe3395e7	-0.17537652
12	0x3dfc3e5d	0.12316582
13	0xbd124844	-0.03571345
14	0x3e84a1a0	0.2590456
15	0x3c63eb9d	0.013911155
16	0xbdd47f9d	-0.10375903
17	0xbc724ffb	-0.014789577
18	0x3ddbcf20	0.10732865
19	0x3e284d17	0.16435657
20	0x3d15c267	0.03656235
21	0xbd2a8cd4	-0.04163821
22	0xbe06d0b8	-0.13165557
23	0xbe47649d	-0.19471975
24	0x3d355bdd	0.04427706
25	0x3df96132	0.12176742
26	0x3e01d176	0.1267756
27	0x3d8be409	0.06830604
28	0x3d44a28c	0.04800658
29	0xbd4f39b2	-0.050592132
30	0xbdf73e7a	-0.12072463
31	0x3ccade09	0.024764078
32	0xbdf98e85	-0.121853866
33	0xbd99583f	-0.07487535
34	0x3d063997	0.032769766
35	0xbe45a26d	-0.19300242
36	0x3cc55590	0.024088651
37	0x3dc350f2	0.095369235
38	0xbe3c8792	-0.18411091
39	0x3cbb8209	0.022889154
40	0xbe3bd502	-0.18342975
41	0xbc806622	-0.0156737
42	0x3dc43a18	0.09581393
43	0xbddcbcae	-0.10778175
44	0xbda21d3a	-0.07915731
45	0x3d36be02	0.0446148
46	0xbe4161b9	-0.18884934
47	0x3d4566be	0.048193686
48	0x3c82571d	0.01591068
49	0x3e044498	0.12916791
50	0x3ebb5a2e	0.3659224
51	0xbd608a0c	-0.05481915
52	0xbe4f27d8	-0.20230043
53	0xbeb1e512	-0.3474508
54	0xbe90c828	-0.28277707
55	0x3e9f07bc	0.31060588
56	0xbdddfb7f	-0.10838985
57	0xbd9c67b4	-0.07636967
58	0xbd98ed25	-0.07467107
59	0xbedbbe72	-0.42918736
60	0x3e5088b8	0.20364654
61	0x3d585649	0.052816663
62	0x3dc51b2b	0.096243225
63	0xbe0c8bb6	-0.1372517
64	0xbe686fdd	-0.22698922
65	0x3e3ce4ce	0.18446657
66	0xbd147f3a	-0.036254145
67	0x3d0455c3	0.03230835
68	0x3de99a7c	0.11406419
69	0x3de8553f	0.113443844
70	0x3d9114b0	0.07084024
71	0x3da7e9db	0.08198901
72	0x3e65fae9	0.22458996
73	0x3e9f9595	0.3116881
74	0x3e6c4700	0.2307396
75	0xbe61ae03	-0.22039036
76	0xbd17db3e	-0.03707432
77	0xbd0b565d	-0.03401791
78	0xbe30b19f	-0.17255257
79	0x3e185be7	0.14878808
80	0x3d9d757b	0.07688423
81	0x3c415586	0.0118001755
82	0x3cff8b3d	0.031194324
83	0xbda4ad50	-0.08040869
84	0x3e67194c	0.22568244
85	0x3d2a2cd5	0.04154666
86	0xbbb30210	-0.0054628924
87	0x3dbd7291	0.092503674
88	0x3e41e2b3	0.18934135
89	0x3df40efe	0.11916922
90	0x3e4e22e8	0.20130503
91	0x3dcaf90e	0.09910785
92	0x3e2d02e8	0.1689564
93	0x3e56fdea	0.20995298
94	0x3e039462	0.12849572
95	0x3e234e9b	0.15947954
96	0xbd3522b7	-0.04422256
97	0xbb813939	-0.003943589
98	0x3d403941	0.0469296
99	0x3e5a93a9	0.2134539
100	0x3bfe7c6d	0.0077662976
101	0x3eb2efc8	0.34948564
102	0x3e5b2057	0.21399055
103	0x3c7bef0e	0.015376819
104	0xbe841aad	-0.25801602
105	0x3d78fb5f	0.0607866
106	0x3e359a9f	0.17734765
107	0x3d93bc3d	0.07213638
108	0xbe44a11c	-0.19202083
109	0x3c478b4b	0.012179206
110	0x3e110427	0.1416174
111	0x3e16cbac	0.14726132
112	0xbe5c1976	-0.21494088
113	0xbe035379	-0.12824811
114	0xbe9b64da	-0.3035038
115	0x3e226bbd	0.15861411
116	0x3e0de179	0.13855542
117	0xbd0941bb	-0.03350995
118	0xbd28e415	-0.04123314
119	0x3ccd2e3c	0.02504646
120	0xbd98e7a7	-0.07466059
121	0xbd12af7a	-0.03581188
122	0x3e00ba3d	0.12571044
123	0x3dca34e1	0.09873367
124	0x3e72d7b6	0.237151
125	0xbc00969c	-0.007848408
126	0xbc984936	-0.018589597
127	0xbe3538f4	-0.17697507
128	0xbddcef16	-0.107877895
129	0xbd670e80	-0.056410313
130	0x3da920cf	0.08258211
131	0x3dc4efca	0.09616049
132	0xbe59812e	-0.21240684
133	0xbe50e879	-0.20401181
134	0x3dee8493	0.1164638
135	0x3e239465	0.15974577
136	0xbd94f8ee	-0.07274042
137	0x3d21fb7a	0.039546467
138	0xbe0d070e	-0.13772222
139	0xbd39ae39	-0.045332167
140	0x3e0fe1ac	0.1405093
141	0xbe3d8861	-0.18509056
142	0xbe6cf2b3	-0.23139457
143	0x3bf744cb	0.0075460426
144	0x3de69cd0	0.11260378
145	0xbd7df90e	-0.062005095
146	0xbe02364f	-0.1271603
147	0xbe3cee1e	-0.1845021
148	0xbd720219	-0.05908403
149	0x3e4b2381	0.19837762
150	0x3e9ac158	0.30225635
151	0x3e3ed5ce	0.18636248
152	0xbcc86850	-0.024463803
153	0x3c3c453f	0.011491119
154	0x3e4af76c	0.19820946
155	0x3e822df6	0.2542569
156	0xbdeef950	-0.11668646
157	0xbcaff765	-0.021480272
158	0xbcb34cce	-0.02188721
159	0x3e48d509	0.19612516
160	0xbd4750b6	-0.048660956
161	0xbe09a289	-0.13440908
162	0xbe3bd1d3	-0.1834176
163	0x3c9f0a5c	0.01941412
164	0x3e30a02a	0.17248598
165	0x3d78d4c3	0.06074978
166	0x3d3ac741	0.04560018
167	0x3d81f18b	0.06344899
168	0x3e4a76cb	0.19771878
169	0x3d8b8dd7	0.06814163
170	0x3d9d6028	0.07684356
171	0x3d99b92c	0.07506022
172	0x3dd900a2	0.10595824
173	0x3d2f931d	0.042864908
174	0xbd1e7196	-0.038682543
175	0xbe0c4aa2	-0.13700345
176	0x3d940b85	0.0722876
177	0xbba12361	-0.0049175476
178	0xbe21d862	-0.158052
179	0x3cd97692	0.026545797
180	0xbd5e096a	-0.054208197
181	0x3e2348ab	0.1594569
182	0xbd1db684	-0.03850414
183	0xbd914c22	-0.07094599
184	0xbd852d8d	-0.06502829
185	0x3d0c4289	0.03424314
186	0x3d759225	0.059953827
187	0x3aaeed32	0.0013345836
188	0x3d2d2629	0.04227272
189	0x3e4ea054	0.20178348
190	0x3df053ec	0.11734757
191	0x3e598406	0.21241769
192	0x3e582e25	0.21111353
193	0x3e48441f	0.19557236
194	0x3e75f80f	0.24020408
195	0x3e207a46	0.15671644
196	0x39883c12	0.00025984697
197	0xbd9fe4c0	-0.078073025
198	0xbe343a05	-0.17600258
199	0xbdfb605e	-0.1227424
200	0x3e2ebd55	0.17064412
201	0xbd65700a	-0.056015052
202	0x3e2d3bdc	0.16917366
203	0x3de56fc7	0.112029605
204	0xbe2fc174	-0.1716364
205	0x3ddb7901	0.10716439
206	0x3d897285	0.06711296
207	0xbda56a05	-0.08076862
208	0xbe42a3d3	-0.19007806
209	0xbdc623e3	-0.096748136
210	0x3ce45b3a	0.027875531
211	0xbe3c7fbd	-0.18408103
212	0xbe967bb8	-0.29391265
213	0xbe22d5ae	-0.15901825
214	0x3df99827	0.12187224
215	0x3df564c0	0.11982107
216	0xbe3d79f3	-0.18503551
217	0xbd8156a8	-0.063153565
218	0xbd93f903	-0.072252296
219	0x3e2f6823	0.17129569
220	0x3d83e050	0.064392686
221	0xbe1d4ae4	-0.153606
222	0x3dde6cda	0.108606055
223	0x3e00f40b	0.12593095
224	0x3e929e6d	0.28636494
225	0x3e1ee2ca	0.155162
226	0xbdd0efc3	-0.10201981
227	0xbdfb1f09	-0.12261779
228	0xbe8c4afe	-0.27400964
229	0xbe03b7c4	-0.1286307
230	0x3d89c02b	0.06726106
231	0xbdc2cf87	-0.09512239
232	0xbe03468d	-0.12819882
233	0x3ce3c495	0.027803699
234	0x3d303d6c	0.043027326
235	0xbd116df5	-0.035505254
236	0xbe36c552	-0.17848709
237	0xbc10697f	-0.008814215
238	0xbd05c68b	-0.03266005
239	0xbdaec570	-0.08533752
240	0xbe73cc3a	-0.23808375
241	0xbe641675	-0.22274192
242	0x3e186a91	0.14884402
243	0xbc7ecba3	-0.01555148
244	0xbd2f2810	-0.042762816
245	0xbdc3b6b9	-0.09556336
246	0xbe213849	-0.15744127
247	0x3e12948c	0.14314479
248	0x3d9c9942	0.07646419
249	0xbb8013b5	-0.0039085993
250	0xbc135b6e	-0.0089939665
251	0x3e0a6a93	0.13517217
252	0x3d15b0ae	0.036545448
253	0x3e568300	0.2094841
254	0x3e2cd050	0.1687634
255	0xbe0330fd	-0.12811656

bias f4 [16]
0	0xbdef54ed	-0.1168612
1	0xbdc4faa0	-0.096181154
2	0x3e1f7c41	0.15574743
3	0x3df8cb86	0.12148194
4	0xbcccb698	-0.024989411
5	0x3e139fd1	0.14416434
6	0x3ca38198	0.019959256
7	0x3d86d79e	0.065840945
8	0x3b737000	0.0037145615
9	0x3e19fc9d	0.1503777
10	0xbde595bd	-0.11210201
11	0xbc0e1f00	-0.008674383
12	0x3e09e5b1	0.13466527
13	0x3ccdd1b0	0.0251244
14	0xbe3105c8	-0.17287362
15	0xbde17747	-0.110090785

weight f4 [16]
0	0x3eb2d6e3	0.3492957
1	0x3d79ceb0	0.06098813
2	0x3f163163	0.5866911
3	0x3ef1f670	0.4725833
4	0x3ecdf41a	0.40225297
5	0x3ee2b4db	0.44278607
6	0x3f018910	0.50599766
7	0x3e7d3b25	0.24729593
8	0x3efec78c	0.49761617
9	0x3f08db74	0.5345986
10	0x3f71423d	0.94241697
11	0x3ec39850	0.38202143
12	0x3ecea073	0.40356788
13	0x3eccb265	0.39979854
14	0x3f0e877a	0.5567547
15	0x3f0b4281	0.5439835

bias f4 [16]
0	0x3cc2209a	0.023697186
1	0xbc7fb84f	-0.015607907
2	0xbe53ca47	-0.20682631
3	0xbeacf293	-0.3377882
4	0xbecd6734	-0.401178
5	0x3d18e34d	0.037326146
6	0xbe88d9e6	-0.26728743
7	0xbe618716	-0.22024187
8	0xbdf8c3e0	-0.12146735
9	0x3dbdb21b	0.092624865
10	0xbe8cd72c	-0.27507913
11	0xbdacf424	-0.08445004
12	0xbe1c804b	-0.15283315
13	0xbe1f42fd	-0.15552898
14	0xbe4e8e20	-0.20171404
15	0xbd18d255	-0.037309963

running_mean f4 [16]
0	0xc18c1fab	-17.515463
1	0xc1c28891	-24.316683
2	0x41c100e2	24.125431
3	0x42b377c0	89.73389
4	0x421f2d63	39.794323
5	0xc254d9d5	-53.212727
6	0x42a920ae	84.56383
7	0x423dbddb	47.435406
8	0xc0554c2c	-3.3327742
9	0xc294910e	-74.28331
10	0xc2b634f1	-91.1034
11	0xc14e1e2f	-12.882369
12	0xc08242fd	-4.0706773
13	0x420a7489	34.613804
14	0x41e18f39	28.194933
15	0xc1e1287b	-28.144766

running_var f4 [16]
0	0x45b61b81	5827.438
1	0x4517ca3a	2428.6392
2	0x469af67d	19835.244
3	0x468a9c7d	17742.244
4	0x46139c16	9447.021
5	0x461377c2	9437.939
6	0x46208f5f	10275.843
7	0x45dd92ab	7090.3335
8	0x45a90897	5409.0737
9	0x463af021	11964.032
10	0x46e435b5	29210.854
11	0x45913e21	4647.766
12	0x46075811	8662.017
13	0x45eb9ab7	7539.3394
14	0x4628097c	10754.371
15	0x4649cc9c	12915.152

weight f4 [16, 16, 5, 5]
0	0x3dc5bca8	0.09655124
1	0x3dee2440	0.11628008
2	0x3cd7681e	0.026294764
3	0x3d4ea954	0.050454453
4	0xbd57a537	-0.052647796
5	0x3d451f92	0.04812581
6	0x3c607354	0.013699371
7	0x3a8c56fd	0.0010707077
8	0xbcd2016c	-0.025635444
9	0xbd8e9ac4	-0.06963113
10	0xbc7d7eb3	-0.015472102
11	0x3d78295f	0.06058633
12	0x3cbd1922	0.023083273
13	0xbd39c3c7	-0.045352723
14	0xbdb2ef2e	-0.08737026
15	0x3cfb19ec	0.030652009
16	0x3b8c822a	0.0042879777
17	0xbc71dc99	-0.014762067
18	0xbd5b21bd	-0.053498972
19	0xbda25d83	-0.07927992
20	0xbd47cf9c	-0.048781976
21	0xbd76d53e	-0.060261957
22	0xbce4dfb9	-0.02793871
23	0xbd4636cd	-0.048392106
24	0xbda717c4	-0.0815883
25	0xbcf82982	-0.03029323
26	0x3cae42ff	0.02127218
27	0xbcf983bd	-0.030458326
28	0x3cd7fa85	0.026364574
29	0xbd11f6be	-0.035635702
30	0xbc571fc2	-0.01313013
31	0xbcc11dc5	-0.023573766
32	0x3cbd321e	0.023095187
33	0xbcd071ea	-0.025444943
34	0xbd10eff3	-0.035385083
35	0x3d0608a7	0.032723095
36	0xbb1dccec	-0.0024078442
37	0xbd0111fa	-0.031511284
38	0xbbe62a7f	-0.007024109
39	0xbc2c49f8	-0.010515682
40	0x3d1efd6e	0.038815908
41	0x3cb9da70	0.022687167
42	0xbcbfa714	-0.023395099
43	0x3d193949	0.037408147
44	0x3d22a5a8	0.039708763
45	0xbc46012e	-0.012085242
46	0x3d16135d	0.03663956
47	0xbd407c71	-0.046993677
48	0xbc83d215	-0.016091386
49	0xbcee5f0d	-0.029098058
50	0xbdb0fbd3	-0.08641782
51	0xbd66755e	-0.056264274
52	0xbd10a160	-0.03531015
53	0xbd93c282	-0.07214834
54	0xbd91d934	-0.07121506
55	0xbd82b41d	-0.0638201
56	0xbd61897d	-0.05506276
57	0x3cdb119d	0.026741797
58	0xbc9d579b	-0.019206813
59	0x3d22d734	0.039756015
60	0xbd47a0a1	-0.048737172
61	0x3ce38ae9	0.027776198
62	0x3d8d13ff	0.068885796
63	0x3db14584	0.08655837
64	0x3dec5b0a	0.11540802
65	0x3c1e3f5c	0.009658661
66	0xbd480b2f	-0.04883879
67	0x3d366ec8	0.044539243
68	0x3d7985e4	0.060918704
69	0x3e0b4836	0.13601765
70	0x3dd6aed1	0.10482562
71	0x3da8ebb0	0.08248079
72	0x3dd4794b	0.10374697
73	0x3e01beee	0.1267049
74	0x3e2fb2e4	0.17158085
75	0x3d8384b0	0.064217925
76	0x3da35d47	0.079767756
77	0x3c8498df	0.016186176
78	0x3c2f274b	0.0106905205
79	0xbd325501	-0.043538097
80	0x3de37e9a	0.11108132
81	0x3d900fc7	0.07034259
82	0x3d1ddeda	0.038542606
83	0x3c3d354c	0.0115483515
84	0x3cb1cc0e	0.021703746
85	0x3d792332	0.06082458
86	0x3d4b8e14	0.049696043
87	0x3d840860	0.0644691
88	0x3d35899e	0.044320695
89	0xbc791d69	-0.015204766
90	0x3d6c0dc9	0.057630334
91	0xbc5152db	-0.012776102
92	0xb8e64e60	-0.00010981853
93	0x3c1ba11a	0.009498859
94	0xbd571ae4	-0.05251588
95	0xbc671c46	-0.014105862
96	0xbcddf300	-0.02709341
97	0xbd09dc65	-0.03365745
98	0x3c854c96	0.01627187
99	0xbd5131ec	-0.051073
100	0x3d81bd98	0.0633499
101	0x3de7c07a	0.11316009
102	0x3e084c6f	0.13310407
103	0x3d1e9895	0.038719732
104	0x3db14300	0.08655357
105	0x3dc9349a	0.09824486
106	0x3ddacf5e	0.106840834
107	0x3df961c6	0.12176852
108	0x3dd262f7	0.10272782
109	0x3dc774bb	0.097390614
110	0x3df7f3a9	0.12107021
111	0x3dc17bc9	0.09447438
112	0x3d9dc1b5	0.07702962
113	0x3dbcea73	0.09224405
114	0x3dae4bcd	0.085105516
115	0x3de9612c	0.11395487
116	0x3dfa0696	0.122082874
117	0x3dd338a3	0.10313537
118	0x3dca1095	0.09866444
119	0x3dc582c7	0.096440844
120	0x3d629869	0.05532113
121	0x3d61726f	0.055040773
122	0x3d6c39af	0.0576722
123	0x3c8bf6bb	0.017085424
124	0xbcda7902	-0.02666903
125	0x3d756b40	0.059916735
126	0x3ca64b2d	0.020299518
127	0xbb73e079	-0.0037212654
128	0x3c3e2a75	0.011606802
129	0xbc9723dd	-0.018449718
130	0x3d5b3c9a	0.05352459
131	0x3d0b8898	0.034065813
132	0xbbaa2776	-0.0051926924
133	0xbcc7319a	-0.024315644
134	0xbd2d499e	-0.042306535
135	0x3d394b7c	0.045238003
136	0x3cf92d24	0.030417033
137	0x3d70ec82	0.0588193
138	0xbd270873	-0.040779542
139	0xbd7ea2f6	-0.06216713
140	0x3d16e811	0.03684241
141	0xbca1e5ed	-0.019762957
142	0x3d0313c4	0.03200127
143	0xbd8971a2	-0.06711127
144	0xbd907e5f	-0.070553534
145	0x3c16a7e2	0.0091953
146	0x3cf151f1	0.029458018
147	0xbd866c88	-0.065636694
148	0xbda190f6	-0.07888977
149	0xbddc8312	-0.10767187
150	0xbc094cce	-0.008380128
151	0xbc32342b	-0.010876696
152	0x3c9acefa	0.018897522
153	0x3cb09abc	0.021558158
154	0xbd24e20f	-0.04025465
155	0x3d32dd80	0.04366827
156	0x3d0749ca	0.033029355
157	0x3b31fa22	0.0027157147
158	0xbc8921bc	-0.016739719
159	0x3ce3bd71	0.027800294
160	0x3d36866f	0.0445618
161	0x3d72fc09	0.05932239
162	0x3df2d31f	0.118566744
163	0x3cf316c0	0.029673934
164	0xbb840e30	-0.0040300116
165	0x3d3f360b	0.0466824
166	0x3d8c9fb1	0.06866396
167	0x3ce23be8	0.027616456
168	0x3cb79ef3	0.02241466
169	0xbc01720d	-0.007900727
170	0x3d8143d2	0.06311764
171	0x3d65db1c	0.056117162
172	0x3d9e140e	0.07718669
173	0x3d3e1305	0.046404857
174	0x3d8438e5	0.06456164
175	0xbd440759	-0.04785857
176	0xbd3c397f	-0.04595327
177	0x3c431c51	0.011908607
178	0x3c8aacbc	0.01692807
179	0x3b57ecd7	0.0032947564
180	0xbd3c57ac	-0.045982048
181	0x3b9b2084	0.004734101
182	0xbd1dd723	-0.03853525
183	0x3cd820a1	0.026382746
184	0xbcefb33d	-0.029260272
185	0xbc96d1d5	-0.018410603
186	0xbd3e8d72	-0.04652161
187	0xbd9f324d	-0.07773266
188	0xbd12a6cf	-0.035803612
189	0x3bf6e785	0.0075349235
190	0xbd63e2b7	-0.055636134
191	0xba98a88e	-0.0011646913
192	0xbc9c859c	-0.019106679
193	0x3d6c6300	0.0577116
194	0xbc59a700	-0.013284445
195	0xbcfaa36d	-0.030595506
196	0xbcd85c4d	-0.0264112
197	0xbce8c78a	-0.02841546
198	0x3b5eb80e	0.0033984217
199	0xbc6bd26e	-0.014393432
200	0x3d4b6885	0.049660224
201	0x3cdd0d4d	0.026983881
202	0x3d455bec	0.048183367
203	0x3d9bd21b	0.07608434
204	0x3d59c1cf	0.053163346
205	0xbcdae158	-0.02671878
206	0xbbdfea28	-0.0068333335
207	0x3c233622	0.009961637
208	0xbabce48f	-0.0014411377
209	0x3d6e4e6f	0.05818027
210	0xbd534217	-0.0515767
211	0xbcd68798	-0.026187703
212	0xbd85dea0	-0.06536603
213	0xbcdaf88b	-0.026729843
214	0x3d253969	0.040337954
215	0xbe07bc79	-0.1325549
216	0xbe086aa0	-0.13321924
217	0xbdb36bc4	-0.08760789
218	0xbd82934b	-0.0637575
219	0x3cdbc063	0.026825136
220	0xbe2632ee	-0.16230366
221	0xbdce3f51	-0.100706704
222	0xbd841965	-0.06450156
223	0xbd0b50f3	-0.034012746
224	0xbdb4e356	-0.088324234
225	0xbd94bd90	-0.07262719
226	0xbd74c5cd	-0.05975895
227	0xbd295178	-0.04133746
228	0x3ad96633	0.0016586244
229	0x3c8973f2	0.01677892
230	0xbc886385	-0.016649017
231	0xbd55fd77	-0.052243676
232	0xbc21f0ad	-0.009884042
233	0x3d44e5ad	0.0480706
234	0x3dd4b863	0.103867315
235	0xbca33f14	-0.019927539
236	0x3b2e6263	0.0026608936
237	0xbb2df72a	-0.0026545026
238	0x3d86a2c5	0.065740146
239	0x3daa24c3	0.08307793
240	0xb9c61231	-0.00037779057
241	0x3c9349a0	0.017979443
242	0x3c283b6f	0.010268076
243	0x3c1b862e	0.00949244
244	0xbc5d1ec4	-0.013496105
245	0x3cb1fcb7	0.02172695
246	0xbd2ce4f0	-0.04221052
247	0x3bc4a451	0.0060010334
248	0xbafd48ef	-0.0019324104
249	0xbb36f6cf	-0.0027918105
250	0xbc5c17cb	-0.013433407
251	0xbd6285f8	-0.055303544
252	0xbd48c549	-0.04901627
253	0xbcb5ba97	-0.0221837
254	0x3c6163d8	0.013756715
255	0xbdc80883	-0.097672485

bias f4 [16]
0	0xbcacd73f	-0.021098731
1	0x3cc2ee5a	0.023795296
2	0xbba42827	-0.0050096693
3	0xbd140192	-0.03613431
4	0x3d3dd517	0.046345796
5	0x3d142017	0.036163416
6	0xbcbd89cd	-0.023136998
7	0x3cc1ea5e	0.023671325
8	0x3cdcbbba	0.026944984
9	0x3c1b19f7	0.00946664
10	0xbbb31e4e	-0.005466259
11	0x3c988ae2	0.018620912
12	0x3cb30613	0.021853482
13	0x3cdab9c8	0.026699916
14	0xbaa4c8e3	-0.0012572076
15	0xbd3f9c92	-0.046780176

weight f4 [16]
0	0x3f0cf6c7	0.5506405
1	0x3f09e830	0.53869915
2	0x3f2cf690	0.67563725
3	0x3ebab3c8	0.36465287
4	0x3ef7ce7d	0.48399726
5	0x3f23e2c3	0.64017886
6	0x3ee90e7c	0.45518863
7	0x3e0e6cf6	0.13908753
8	0xbabe49ab	-0.0014517804
9	0x3ec7b1d8	0.39002872
10	0x3efccca1	0.4937487
11	0x3d301bc8	0.042995244
12	0x3eb91fe6	0.3615715
13	0x3f0e4a59	0.55582196
14	0x3f31cefe	0.6945647
15	0x3e6fb9a3	0.23410659

bias f4 [16]
0	0xbf417fce	-0.7558564
1	0xbe1aa124	-0.15100533
2	0xbe25c7e2	-0.1618953
3	0xbe4a7b4b	-0.19773595
4	0xbe9157cd	-0.283873
5	0xbe172e35	-0.1476372
6	0x3b47d802	0.003049374
7	0xbdf1c1f0	-0.11804569
8	0xbc2d55bd	-0.010579524
9	0xbe4fbfb0	-0.20287967
10	0xbdc5de6e	-0.09661566
11	0xbd63cbe9	-0.055614386
12	0x3be0d9a0	0.0068618804
13	0xbeca078e	-0.3945889
14	0xbef797b8	-0.4835794
15	0xbdec0cc1	-0.1152587

running_mean f4 [16]
0	0xbe13ea3f	-0.14444827
1	0x3df887ad	0.12135253
2	0xbed09d0e	-0.40744823
3	0x3b842f6c	0.0040339734
4	0x3ef1b676	0.4720952
5	0xbf31d3b0	-0.69463634
6	0xbe43bcb0	-0.19114947
7	0x3e23b9b6	0.15988812
8	0x3ded1556	0.11576335
9	0xbeb78388	-0.35842538
10	0x3ef7ba8b	0.48384508
11	0x3e7f222c	0.2491538
12	0x3eab6b2a	0.33480197
13	0x3db4c6c7	0.08826976
14	0xbe9b0edc	-0.30284774
15	0x3d76305d	0.060104717

running_var f4 [16]
0	0x3ee2d199	0.44300535
1	0x3ec96c5a	0.39340478
2	0x3f248fa6	0.6428169
3	0x3e8c61bb	0.27418312
4	0x3f04fdf5	0.5195001
5	0x3f449c08	0.76800585
6	0x3f17e0c4	0.5932734
7	0x3db187c3	0.086684726
8	0x3c89c610	0.016818076
9	0x3e3e697d	0.18594928
10	0x3ef561df	0.47926232
11	0x3cf1e915	0.029530087
12	0x3e64d14c	0.22345465
13	0x3ee43ffd	0.4458007
14	0x3f393a3a	0.7235447
15	0x3d982b5c	0.07430145

weight f4 [32, 16, 5, 5]
0	0x3ce2172c	0.02759894
1	0x3e199f5e	0.150022
2	0x3e1511e7	0.1455761
3	0x3d965694	0.07340732
4	0x3daba904	0.083818465
5	0x3e245b9f	0.16050576
6	0x3e7b408d	0.24536343
7	0x3e12110c	0.14264315
8	0x3e0f86ce	0.14016268
9	0x3e270055	0.1630872
10	0x3e358683	0.17727093
11	0x3e6e4983	0.2327023
12	0x3e35a05d	0.17736955
13	0x3de232da	0.110448554
14	0x3dbc30eb	0.09189018
15	0x3ddba593	0.1072494
16	0x3e2c0e7a	0.16802397
17	0x3da5d802	0.08097841
18	0x3d2b837e	0.041873448
19	0x3e01de2f	0.12682413
20	0x3ca90ed1	0.020636948
21	0x3dd543ab	0.10413297
22	0x3e1e0884	0.15432936
23	0x3d82bce6	0.06383686
24	0x3df1c99e	0.118060336
25	0xbd4b09ad	-0.049569774
26	0xbe22fce6	-0.15916786
27	0xbd9e6ee8	-0.077359974
28	0xbdf1c2f1	-0.1180476
29	0xbd9df150	-0.07712042
30	0xbdc518a6	-0.09623842
31	0xbd7efa69	-0.06225053
32	0xbd4a9e17	-0.049467172
33	0xbcf028fc	-0.029316418
34	0xbd005322	-0.03132928
35	0xbd31bc20	-0.0433923
36	0x3c9ead95	0.01936988
37	0x3bf820c9	0.0075722677
38	0xbd34e9d8	-0.044168323
39	0xbc71d075	-0.014759173
40	0xbc93c605	-0.018038759
41	0x3d97a013	0.074035786
42	0x3d8d4a3d	0.068989255
43	0xbc901559	-0.017588304
44	0x3c027e9b	0.007964755
45	0x3de030dc	0.10946819
46	0x3d914aee	0.0709437
47	0x3dcb0503	0.09913065
48	0x3c67c91f	0.014147072
49	0xbbe3efec	-0.006956091
50	0xbd02e8d5	-0.031960327
51	0xbd41e311	-0.047335688
52	0xbe02b6da	-0.12765065
53	0xbe2ffd4e	-0.17186472
54	0xbe74d5df	-0.2390971
55	0xbae25c38	-0.0017269915
56	0x3d94647d	0.07245729
57	0x3c77ad50	0.0151170045
58	0xbd64c4cf	-0.055851754
59	0xbda1c866	-0.07899551
60	0x3c95d739	0.018291103
61	0x3d19c7f9	0.037544224
62	0xbbc846c0	-0.0061119497
63	0xbd806753	-0.062697075
64	0xbd5f7f33	-0.054564666
65	0xbcebaf10	-0.02877
66	0x3bc94716	0.0061425073
67	0xbbac0ea1	-0.0052507673
68	0xbce35ddd	-0.027754718
69	0xbd5b1dd2	-0.053495236
70	0x3d0b9f28	0.03408733
71	0x3ceb0f7c	0.028693907
72	0x3d51b7e3	0.05120076
73	0xbcfb96d1	-0.030711563
74	0xbd71f05f	-0.059067126
75	0xbcae43c1	-0.021272542
76	0x3cfa5e8d	0.030562663
77	0x3d47ebe6	0.048808955
78	0xbc7f6d67	-0.015590048
79	0xbd225ec4	-0.039641157
80	0x3da3d480	0.079995155
81	0x3c964535	0.018343547
82	0x3d766105	0.06015112
83	0x3d62ee8f	0.05540329
84	0xbd2e315d	-0.042527545
85	0xbb26ea05	-0.0025469076
86	0x3cc14384	0.023591764
87	0xbd17003a	-0.03686545
88	0x3c95a563	0.01826734
89	0xbcde6420	-0.027147353
90	0x3d62fa57	0.055414524
91	0xbd03ffb7	-0.03222629
92	0xbd6e4997	-0.05817565
93	0x3af7051e	0.001884613
94	0xbcaf5a36	-0.02140532
95	0xbd10269e	-0.03519308
96	0x3ca0d7c2	0.019634131
97	0xbbf428f7	-0.0074511725
98	0xbc6ea923	-0.0145666925
99	0xbd4654a8	-0.04842058
100	0xbd95d3fa	-0.07315822
101	0xbd1fbd82	-0.038999088
102	0xbd679273	-0.05653615
103	0xbca951ee	-0.02066895
104	0x3d4cf6fe	0.050040238
105	0xbd85e71c	-0.06538221
106	0xbd7864ce	-0.06064301
107	0x3cb0799c	0.021542363
108	0xbd32cdbf	-0.043653246
109	0x3d9f66f7	0.07783311
110	0xbdaaecd7	-0.08345955
111	0xbd024c11	-0.031810824
112	0x3d3f479f	0.046699163
113	0x3cdf3bb7	0.027250154
114	0x3e015369	0.12629475
115	0xbdcd4714	-0.10023323
116	0xbb81aac7	-0.003957126
117	0x3b6ae8cb	0.0035844322
118	0x3d315479	0.04329345
119	0x3dc28f4e	0.094999894
120	0xbdc31913	-0.09526267
121	0xbd77a46b	-0.060459536
122	0xbd05f732	-0.032706447
123	0xbd6347c6	-0.05548837
124	0x3abc6ad8	0.0014375104
125	0x3d380718	0.04492864
126	0x3ca6554a	0.02030434
127	0xbbb31d17	-0.0054661143
128	0xbd270c5f	-0.040783282
129	0xbd6268d5	-0.055275757
130	0x3dadacb1	0.08480204
131	0x3cc0e515	0.023546735
132	0x3bc770f6	0.006086464
133	0xbc7b64a4	-0.015343819
134	0xbd85850b	-0.065195166
135	0x3d940ef4	0.072294146
136	0x3d937565	0.072001256
137	0x3c2287e1	0.009920091
138	0xbd1be265	-0.038057704
139	0xbd107839	-0.035270903
140	0xbba2d0f5	-0.0049687573
141	0xbb247d12	-0.0025098962
142	0xbcf8e648	-0.030383244
143	0xbd99848d	-0.07495985
144	0x3c91568e	0.017741468
145	0x3c380bb8	0.011233263
146	0xbbe502c0	-0.006988853
147	0xbd598311	-0.05310351
148	0x3d231f5c	0.03982483
149	0x3e18f575	0.14937384
150	0x3c458882	0.012056472
151	0x3d14a6f0	0.036292017
152	0x3bf60ed2	0.007509091
153	0x3d10cb06	0.03534987
154	0xbae09952	-0.0017135537
155	0xbc38822c	-0.011261504
156	0x3cccf452	0.025018845
157	0x3d48f0a9	0.049057636
158	0x3ce92c1c	0.028463416
159	0xbc61afd8	-0.013774835
160	0x3ba6bef0	0.0050886795
161	0xbc8432c7	-0.016137494
162	0x3bfc23f5	0.007694716
163	0xbb0e7e71	-0.0021742845
164	0xbc8d82c5	-0.01727427
165	0x3bb839ff	0.005622148
166	0xbd2ad073	-0.0417027
167	0x3ca21868	0.019787028
168	0xbd75aeca	-0.059981145
169	0xbd92645d	-0.07148049
170	0xbd281204	-0.041032806
171	0xbcc42635	-0.023944
172	0xbcadd357	-0.021218939
173	0xbc2458a5	-0.0100309
174	0xbdd89fa2	-0.105773225
175	0xbbdc87eb	-0.00673007
176	0xbcec181b	-0.028820088
177	0xbd35feed	-0.04443257
178	0xbd1ed79e	-0.038779847
179	0x3c85f5ea	0.016352613
180	0x3c3d52bb	0.011555369
181	0xbbff9948	-0.007800255
182	0x3d1974ac	0.037464783
183	0x3d4e81dc	0.050416812
184	0x3cf0f3af	0.029413072
185	0x3ce50f3f	0.027961371
186	0x3c8bdc85	0.017072925
187	0x3bbb339a	0.0057129385
188	0x3d23670c	0.039893195
189	0x3c1a7902	0.009428265
190	0xbc58509d	-0.013202813
191	0xbb37837e	-0.002800196
192	0xbcaf1a7a	-0.02137493
193	0xbc86ce28	-0.016455725
194	0x3bfe44e5	0.0077596777
195	0x3d7fae71	0.06242222
196	0xbb42104a	-0.002961176
197	0x3d60245f	0.054722186
198	0xbc06c021	-0.008224518
199	0x3d0d7c80	0.03454256
200	0xbcdde39a	-0.027086068
201	0xbbbfbf36	-0.0058516515
202	0xbd3d88a6	-0.046272896
203	0x3d34e152	0.044160195
204	0xbb49874a	-0.0030750805
205	0xbce5c738	-0.028049096
206	0xbc90c030	-0.017669767
207	0xbd0abff6	-0.033874474
208	0xbc129bc8	-0.008948274
209	0x3b912abc	0.004430143
210	0xbd26bf20	-0.040709615
211	0x3d143f33	0.036193084
212	0x3b6dc14a	0.003627854
213	0xbd2788ce	-0.04090195
214	0x3ae6b594	0.0017601722
215	0xbc936fcb	-0.017997643
216	0x3ccf25b9	0.025286542
217	0x3d0e5e08	0.034757644
218	0x3c25f407	0.010128981
219	0x3d407834	0.046989635
220	0x3d05bae6	0.032648943
221	0xbc9afe81	-0.018920185
222	0xbd135a35	-0.0359747
223	0x3d0a573e	0.033774607
224	0xbad326eb	-0.0016109621
225	0xba8bc804	-0.0010664468
226	0x3c1033c8	0.008801408
227	0xbbda4751	-0.0066613336
228	0x3d5fc83a	0.05463431
229	0xbd30ed17	-0.043194856
230	0x3d4de467	0.05026665
231	0x3d8e9732	0.06962432
232	0x3d8d1d72	0.06890382
233	0x3d56f47e	0.05247926
234	0x3b4a2c23	0.0030849061
235	0x3c6ec3e5	0.014573072
236	0x3c2cc69c	0.010545399
237	0x3d7ef81d	0.062248338
238	0x3c988937	0.018620117
239	0xba33c9a4	-0.0006858355
240	0x3d125593	0.03572614
241	0x3d9f19cd	0.07768593
242	0x3ca39c75	0.019972065
243	0x3d923e45	0.07140783
244	0x3b0346db	0.0020031247
245	0x3da87911	0.082262166
246	0x3dc77d48	0.097406924
247	0x3d6a47ce	0.057197385
248	0x3d2a657d	0.041600693
249	0x3b3f52dc	0.0029193675
250	0x3dae13df	0.08499884
251	0x3dbb522a	0.09146531
252	0x3e1de895	0.15420754
253	0x3e33769e	0.17525718
254	0x3e022b44	0.12711817
255	0x3c21a845	0.009866779

bias f4 [32]
0	0xbd0c10fe	-0.034195893
1	0xbd15da2e	-0.036585025
2	0x3d212d23	0.039349686
3	0xbb2f7d87	-0.00267777
4	0xbc310ad8	-0.010805808
5	0x3cdd90b6	0.027046543
6	0xbcedc0e3	-0.02902264
7	0xbc3ca534	-0.011513997
8	0x3ca70762	0.020389263
9	0xbd3a41e3	-0.04547299
10	0x3cef98f2	0.029247735
11	0x3d3446b3	0.044012737
12	0xbc395e18	-0.011313938
13	0x3b75b3d7	0.0037491226
14	0x3d15352d	0.036427666
15	0x3c2e55c0	0.010640562
16	0x3d42c6a1	0.04755271
17	0xbcad1eb0	-0.021132797
18	0x3d3aa7c9	0.04557017
19	0x3c547d94	0.012969393
20	0xbd42cc18	-0.04755792
21	0x3d181033	0.037124824
22	0xbd088c00	-0.03333664
23	0xbd202a83	-0.039103042
24	0xbd0eecda	-0.034893848
25	0x3caa3592	0.020777497
26	0xbd3a4ec2	-0.045485266
27	0x3c74b2ec	0.014935236
28	0x3d1f3b59	0.038874958
29	0x3ce022ca	0.027360339
30	0xbbac46de	-0.0052574715
31	0xbb789892	-0.0037932736

weight f4 [32]
0	0x400a7767	2.1635377
1	0x3ef02cdc	0.46909225
2	0x3f7eda6b	0.9955203
3	0x3f44c9dc	0.7687051
4	0x3fde1a9b	1.7351869
5	0x3fc1459e	1.509937
6	0x3e856eb1	0.26061013
7	0x3ec5599c	0.3854493
8	0x3f9da7c1	1.231682
9	0x4013b04a	2.3076348
10	0x3fd2ae75	1.645949
11	0x3ef518d1	0.47870496
12	0x40131cd0	2.2986336
13	0x3fd88360	1.6915092
14	0x3f5ec1a5	0.8701423
15	0x3edd5df6	0.4323575
16	0x400fedf6	2.248899
17	0x3e154086	0.14575395
18	0x3f9c7428	1.2222948
19	0x3e8fd6f3	0.2809368
20	0x3fc49ef2	1.5361006
21	0x3e10284f	0.14077877
22	0x3ff91962	1.9460871
23	0x3fcb71bc	1.5894084
24	0x40020316	2.0314384
25	0x4007db3f	2.1227567
26	0x3f208b5e	0.6271266
27	0x3e626a77	0.22110926
28	0x3f546a9c	0.82975173
29	0x3fc65779	1.5495445
30	0x3ffefedc	1.9921527
31	0x3f8ea839	1.1145087

bias f4 [32]
0	0x3f2575b2	0.64632714
1	0x3db6797b	0.08909889
2	0x3e7c701e	0.24652144
3	0x3e124f6c	0.1428811
4	0x3eb67ab1	0.3564048
5	0x3eac1838	0.33612227
6	0x3cb525b6	0.022112709
7	0x3dbe5c70	0.09294975
8	0x3e981887	0.29706213
9	0x3f219806	0.63122594
10	0x3ef7e143	0.4841405
11	0x3e16f5d1	0.14742209
12	0x3f4e5fc4	0.80614877
13	0x3f19bac4	0.60050607
14	0x3e16703b	0.1469125
15	0x3dcf9e33	0.10137596
16	0x3f06fd59	0.5273033
17	0x3d53e04f	0.05172759
18	0x3ebc2171	0.36744264
19	0x3de7788e	0.11302291
20	0x3f23d25f	0.63992876
21	0x3ccef458	0.025262997
22	0x3f36ffad	0.7148388
23	0x3f2c758c	0.6736686
24	0x3f0dede9	0.5544115
25	0x3efbc1e1	0.49171355
26	0x3e4e069b	0.20119707
27	0x3da35ced	0.079767086
28	0x3e9ca2bb	0.30592903
29	0x3e58698b	0.21134011
30	0x3f178b51	0.59196955
31	0x3ed59a7b	0.41719422

running_mean f4 [32]
0	0x3dad63f5	0.08466331
1	0x3d8a570e	0.067548856
2	0x3ebc8369	0.36819008
3	0x3e1acb64	0.1511665
4	0x3b77e520	0.0037825778
5	0x3c064d11	0.008197085
6	0xbcc0e0d0	-0.023544699
7	0x3d2fab13	0.04288776
8	0x3e5b5bdd	0.21421762
9	0x3e1269db	0.14298193
10	0xbd1ad714	-0.03780277
11	0x3bd95131	0.006631993
12	0x3e0c0d1a	0.13676873
13	0x3d454f2f	0.04817122
14	0x3e1f15da	0.1553568
15	0x3d9dda36	0.07707636
16	0x3f0e8a53	0.55679816
17	0x3d9773c4	0.073951274
18	0x3dbf2efb	0.09335133
19	0x3d550f54	0.05201657
20	0xbe8e831a	-0.27834398
21	0x3e0df0af	0.13861345
22	0xbeb2eeb6	-0.34947747
23	0x3d9c3a75	0.07628337
24	0x3d83452b	0.06409677
25	0x3e530120	0.20605898
26	0x3d70d3a0	0.05879557
27	0xbcf7aa7b	-0.030232659
28	0x3deead87	0.116541915
29	0x3e661a2f	0.22470926
30	0x3e57f9d4	0.21091396
31	0xbe5a0b1f	-0.21293305

running_var f4 [32]
0	0x3ecd4d94	0.4009825
1	0x3d64e1c3	0.055879366
2	0x3ddd6a90	0.10811341
3	0x3d4880d4	0.048950985
4	0x3e4f616e	0.2025201
5	0x3e1d625b	0.15369551
6	0x3d2a6658	0.04160151
7	0x3ccac123	0.024750298
8	0x3dab490c	0.08363542
9	0x3f19b32f	0.6003904
10	0x3e621a22	0.22080281
11	0x3d5a2bbf	0.053264376
12	0x3e9cf04a	0.30652076
13	0x3e835cf6	0.2565686
14	0x3d8f9214	0.07010284
15	0x3d437649	0.047720227
16	0x3e94d519	0.2906883
17	0x3d3375e1	0.04381359
18	0x3e1a9712	0.15096691
19	0x3d18d8d4	0.03731616
20	0x3e22291e	0.15835997
21	0x3cd4c581	0.025973083
22	0x3e824b57	0.25448105
23	0x3e2a9afe	0.16660687
24	0x3e6e6a79	0.23282804
25	0x3eac47f2	0.3364864
26	0x3d53770d	0.051627208
27	0x3cdabf65	0.026702592
28	0x3d394047	0.045227315
29	0x3dd9694c	0.10615787
30	0x3e5c3b9c	0.21507114
31	0x3df0a6a8	0.11750537

weight f4 [10, 32]
0	0xbf3923b6	-0.72320116
1	0xbd93496c	-0.071917385
2	0xbd93c49d	-0.072152354
3	0xbe7468b4	-0.23868066
4	0xbf358799	-0.7091003
5	0x3f1a7082	0.60327923
6	0xbe24b7fc	-0.1608581
7	0xbcfc2ecb	-0.030784031
8	0xbf2454fb	-0.6419217
9	0x3f11fd37	0.57027
10	0x3f84db80	1.0379486
11	0x3dc9ed4f	0.09859716
12	0xbf5d3803	-0.8641359
13	0x3d55dc5f	0.052212115
14	0x3e878f3f	0.26476476
15	0xbe460665	-0.19338377
16	0xbe894cbf	-0.26816365
17	0xbccb13d5	-0.02478973
18	0xbed5b6b1	-0.41740945
19	0x3d4c0197	0.049806204
20	0x3f1432e5	0.5789016
21	0x3d86f719	0.06590099
22	0x3f20cf82	0.6281663
23	0xbef09983	-0.4699212
24	0x3f900209	1.1250621
25	0xbeff618a	-0.49879104
26	0xbe20b1b1	-0.15692784
27	0x3e7b10d3	0.24518137
28	0xbeb4205b	-0.35180935
29	0xbdb43b22	-0.08800341
30	0xbefa71fb	-0.48915085
31	0x3f17328b	0.590615
32	0x3dc764be	0.09736012
33	0x3d3db00a	0.046310462
34	0xbe0e4cff	-0.13896559
35	0xbe05af93	-0.13055257
36	0xbf106136	-0.5639833
37	0xbe115015	-0.14190705
38	0xbdda9abe	-0.10674046
39	0x3d8ea0c6	0.06964259
40	0x3e78b22b	0.24286716
41	0x3f8f8c19	1.121463
42	0xbf2f8caf	-0.6857404
43	0xbe8535a1	-0.26017478
44	0xbefc3021	-0.4925547
45	0x3f8dc1fa	1.1074822
46	0x3dd3cdd7	0.10341995
47	0xbe582838	-0.21109092
48	0xbf0b4ec3	-0.54417056
49	0xbdf4099c	-0.11915895
50	0x3d8b53b4	0.068030745
51	0xbd4b170d	-0.04958253
52	0x3e9d2678	0.30693412
53	0x3d92e907	0.07173353
54	0x3d358715	0.044318277
55	0x3f68125b	0.9065301
56	0xbf6ea091	-0.93213755
57	0xbebc5e4a	-0.36790687
58	0x3ea38222	0.3193522
59	0xbd1dd0bb	-0.03852914
60	0xbe9b75db	-0.30363354
61	0xbe9ff42c	-0.31240976
62	0xbec77fa8	-0.3896458
63	0x3e044903	0.12918477
64	0xbf85749f	-1.0426215
65	0xbd9b9146	-0.07596068
66	0xbe0d653d	-0.1380815
67	0xbe476538	-0.19472206
68	0xbe16f7eb	-0.1474301
69	0xbe349ee7	-0.17638741
70	0x3ddbcc62	0.10732342
71	0xbe194cac	-0.14970654
72	0xbf0229c7	-0.50845
73	0xbe7d0812	-0.2471011
74	0xbec37e7a	-0.3818243
75	0xbe0525b7	-0.13002668
76	0x3f73a7d7	0.9517798
77	0x3ee2e1c1	0.44312862
78	0xbed8d86a	-0.4235261
79	0xbe6b4c51	-0.22978331
80	0x3f991910	1.1960773
81	0xbd1517db	-0.036399703
82	0x3e00d26f	0.12580274
83	0x3e2fb4c9	0.17158808
84	0x3dc302db	0.09522029
85	0xbdb4a364	-0.08820227
86	0x3e8fe49d	0.28104106
87	0x3df7c479	0.12098021
88	0x3f1fc4fa	0.6240994
89	0xbf096a7d	-0.53678113
90	0x3e94dbe2	0.29074007
91	0xbd3756c5	-0.044760484
92	0x3f0b097d	0.5431135
93	0xbee76b14	-0.45198882
94	0xbe34a3c4	-0.17640597
95	0xbd36e519	-0.04465208
96	0xbf34122e	-0.7034024
97	0x3daf43c5	0.08557848
98	0xbe597f54	-0.21239978
99	0x3dc5aad7	0.09651726
100	0x3e58bd46	0.21165952
101	0x3f2372bb	0.6384694
102	0xbe7f9cfa	-0.24962226
103	0xbe94eba3	-0.29086027
104	0xbf07bef5	-0.5302575
105	0x3f58f9b7	0.84756035
106	0xbe14f5f7	-0.14546953
107	0xbe68ae4b	-0.22722737
108	0x3fa24f1a	1.268039
109	0xbe3851f9	-0.1800002
110	0x3e9aedba	0.30259496
111	0xbe1db862	-0.15402368
112	0xbf54b092	-0.83081925
113	0x3e2ab9a8	0.16672385
114	0x3cb5bb75	0.022184113
115	0x3daa7a7e	0.08324145
116	0xbeb8f889	-0.36127117
117	0xbbfd9b3e	-0.0077394536
118	0xbbfd7e28	-0.0077359863
119	0xbf4689d6	-0.7755407
120	0xbe30c659	-0.17263164
121	0x3e8a8dcc	0.27061307
122	0xbeb0c174	-0.34522593
123	0x3daeeea8	0.08541614
124	0x3e691938	0.22763526
125	0xbec24c44	-0.3794881
126	0x3f6ffb61	0.9374295
127	0xbeb9724a	-0.36220008
128	0x3ea5dceb	0.3239511
129	0xbdcc0d3f	-0.09963464
130	0x3f47acb0	0.77997875
131	0xbe14a00d	-0.1451418
132	0x3f3d7156	0.7400106
133	0x3dd84b84	0.105612785
134	0x3ce7bd82	0.028288607
135	0x3e039ecb	0.12853543
136	0x3e06c920	0.1316266
137	0xbf582638	-0.8443332
138	0xbf143f08	-0.5790868
139	0x3d837c73	0.06420221
140	0xbf5aeb0c	-0.85514903
141	0xbec2dd7f	-0.38059613
142	0xbd4f528f	-0.050615843
143	0xbdffae88	-0.12484461
144	0x3f23893f	0.63881296
145	0xbdc71367	-0.097204976
146	0xbed8e8f8	-0.4236524
147	0x3e40831a	0.18800011
148	0x3e8ec52b	0.27884802
149	0x3e08afbb	0.13348286
150	0xbeb35b3a	-0.35030538
151	0x3f3e9384	0.7444384
152	0xbf41c463	-0.7569029
153	0x3f0fbeac	0.5615032
154	0x3ad52b22	0.0016263465
155	0x3da3d981	0.0800047
156	0xbec19dc5	-0.3781568
157	0x3f48cb88	0.78435564
158	0x3ee88cbc	0.45419872
159	0xbe3778f9	-0.17917241
160	0x3f57e01b	0.8432633
161	0x3e11d8da	0.14242879
162	0xbd107d2a	-0.035275616
163	0x3edf26fd	0.43584433
164	0xbef5b751	-0.47991422
165	0x3f113abc	0.56730247
166	0x3dfd7712	0.123762265
167	0xbdc9f31a	-0.09860821
168	0x3e72ddd3	0.23717432
169	0xbe91b8e1	-0.28461364
170	0x3ef62761	0.4807692
171	0x3e75771f	0.23971222
172	0xbeb2a43d	-0.3489093
173	0xbf334827	-0.7003197
174	0x3ebe0b8a	0.3711818
175	0xbe17ee26	-0.1483694
176	0xbf0f061e	-0.5586871
177	0x3d93a23d	0.07208679
178	0x3ee0e962	0.43928057
179	0xbe68083c	-0.22659391
180	0xbe825403	-0.2545472
181	0xbc6710d9	-0.014103138
182	0x3f2ef639	0.68344456
183	0xbf0380fb	-0.51368684
184	0xbf0a2ddf	-0.53976244
185	0xbe859d23	-0.26096448
186	0xbeb4a5dd	-0.35282794
187	0x3e1b4d6d	0.15166254
188	0x3d910fe6	0.070831105
189	0xbec01bf4	-0.37521327
190	0x3f6d6735	0.92735606
191	0xbe33c60e	-0.1755602
192	0x3f08b26b	0.53397244
193	0xbe63ab20	-0.22233248
194	0xbae87cf7	-0.0017737438
195	0xbe698be5	-0.22807272
196	0xbd2538f9	-0.040337536
197	0x3cde619b	0.027146151
198	0xbe1e2f3b	-0.15447704
199	0x3d9335ea	0.07188018
200	0x3df95de8	0.12176114
201	0xbf766243	-0.96243685
202	0xbebe3cae	-0.3715567
203	0x3e9293d0	0.28628397
204	0xbf46aaed	-0.7760456
205	0xbf0d8436	-0.5527986
206	0x3eae1285	0.33998504
207	0xbe2b626c	-0.16736764
208	0x3f0c01f0	0.54690456
209	0xbe0471fc	-0.12934107
210	0x3f276c66	0.6539978
211	0xbe28dcc4	-0.16490465
212	0x3f81ea40	1.0149612
213	0xbc378233	-0.0112004755
214	0x3f1baf8c	0.6081474
215	0x3ef4d9ab	0.47822317
216	0xbd8e649b	-0.06952783
217	0xbf34a208	-0.7055974
218	0xbde46295	-0.111516155
219	0x3dd5e5ea	0.10444243
220	0xbe9c902c	-0.30578744
221	0xbe8a29ce	-0.2698502
222	0xbf648b29	-0.8927484
223	0x3f3e6b90	0.7438288
224	0xbf1e1f54	-0.6176655
225	0x3e926be0	0.28597927
226	0x3ea022a2	0.31276423
227	0x3dbd9c5a	0.09258337
228	0x3df1729e	0.117894396
229	0xbf62020d	-0.8828438
230	0xbd38098b	-0.044930976
231	0x3e28cc30	0.16484141
232	0x3d94d524	0.07267216
233	0x3f020e3d	0.50802976
234	0xbec491bb	-0.38392434
235	0xbde6d0a7	-0.11270266
236	0x3ec6cb73	0.38827094
237	0x3eddeac8	0.43343186
238	0xbe80119a	-0.2501343
239	0x3e95b05b	0.2923611
240	0x3f13daf9	0.57756
241	0xbca8b173	-0.020592427
242	0xbeca58c9	-0.39520863
243	0xbdd63203	-0.10458758
244	0xbef92872	-0.4866367
245	0x3e0e94d6	0.13923964
246	0xbfba8a68	-1.4573488
247	0xbe003cce	-0.12523195
248	0x3ef47b46	0.477503
249	0x3f81efb4	1.0151277
250	0xbd110bd0	-0.035411656
251	0xbd9f9a5b	-0.07793113
252	0xbc8d409a	-0.017242718
253	0x3ebe0150	0.37110376
254	0x3ead69aa	0.33869678
255	0xbea3c18e	-0.31983608

bias f4 [10]
0	0x3dc31ef6	0.0952739
1	0x3e6ea7b6	0.23306164
2	0xbc83e741	-0.016101481
3	0xbdae4b96	-0.085105106
4	0x3e35951f	0.17732666
5	0x3b304245	0.0026894968
6	0xbd4e357a	-0.050343968
7	0xbdb1a2bd	-0.08673618
8	0x3e738e40	0.23784733
9	0xbb4130b0	-0.0029478483
